checkpoints/residual_dyn_final.pth (torch, 89882 bytes, 23 tensors)

encoder.0.weight f4 [64, 2, 7]
00000000: 0883 0bbe d644 513d 3f13 edbd d5b5 a0bd
00000010: 6596 1e3e 3afd f9bd 0712 c83d 51de 5fbe
00000020: e938 5dbd e578 b5bd ecd6 493e b7c6 1cbe
00000030: fbd1 053e cbf2 bd3d 1980 05be e475 433e
00000040: c313 b93c b821 9abd cf68 a8bd fcaa 49be
00000050: a6f6 203d 88e6 703e e24a 423d d152 733e
00000060: c589 bc3d 44f1 633d 184a 9b3a ad89 393e
00000070: 87b5 893e b3ea 6f3e 3e99 a9bd e70b b03c
00000080: 4b99 853e 31ec 47be 8730 6ebe 2942 503e
00000090: 0dde 42be 13f0 483d 13f4 79be e844 be3d
000000a0: 157c ab3c 3136 7e3e 024e 9f3d ca73 663d
000000b0: 81c0 303e d8da 0abe 44fd 423c 66bf 183e
000000c0: baa5 f23d 10c7 11be a8ea 2e3e 7fcf 6ebe
000000d0: 184a 3a3e 6c88 e0bd af6a 08bd 8749 1a3e
000000e0: 6496 88bd 8f64 1ebe fe5f aabd f8f2 36be
000000f0: 451a b0bd 84d5 303d eebd 503e 27ca 9ebd
00000100: ddbf 063e 1d76 553d 33e2 09be 7756 51be
00000110: 1833 e7bb f984 18be 424d bcbc a859 163d
00000120: c077 88be bcfb 0abd fda7 033e 5b23 69bc
00000130: dcf2 5cbe dde7 113e 86d8 34be e604 713e
00000140: 0ffc e63d a53d cbbd 6d98 2c3e 9e65 12bd
00000150: 03fc 763c ef30 8c3e e866 b03c 6cd3 9abd
00000160: f6ae 5e3e ffdd 46be 300b 82bd f888 67bc
00000170: c87d 52be 6a11 e6bd 3676 ce3d 2ba9 063e
00000180: 4668 4bbd 2ddc 6bbe bdac 31be 55f8 cf3c
00000190: 1fb4 70bc 9b27 6f3e 3c13 68be d3a4 25be
000001a0: 9a9c 413e 0f0a 633d 2ccc 693e 1560 593e
000001b0: d8d3 cfbc b2f6 80bd d47c 203e 8b56 013e
000001c0: 6d7d 1e3e 6373 b0bd 30a1 19be 2cb1 98bd
000001d0: adac 1a3e f6ac 51be bc54 303d 9b4a 273d
000001e0: befe 08be ba27 653e 0218 0f3e cd04 7abe
000001f0: 6bec 203e f89d 223d bc0b 813e 9f5b aebd
00000200: d125 d93c 1da8 773e 033d 53be f1a4 ddbd
00000210: 993d 7e3e aadb 833d 4762 553e 5664 7c3e
00000220: df8f be39 b3f0 063e 3098 663e e9a0 1b3d
00000230: 001b 9ebd 8fe5 123e cea0 13be c795 1bbe
00000240: 6817 abbd c9b1 0fbe 4edc 2ebd 867d 173c
00000250: 7ed5 62bd 51d7 64bd 0ef4 733e 10ad 763e
00000260: 5f46 aabc fe6f 01bd 22e6 eabc 24e2 59bd
00000270: 5961 793e 0aed 603e 9926 b53d 655c 2cbd
00000280: e39d dabc d025 b33d ed86 593b 731d b2bd
00000290: b3b8 0e3e 1a58 6bbe 8fe7 93bd a5ad 883e
000002a0: d6dd 6e3e 97d5 803e ebb4 043d a63b 163e
000002b0: 8b04 b9bd 7b5f 8dbc 027b f9bd eb49 ec3d
000002c0: 67cb 2d3e 550c 313e 2b11 1b3e 783e 05be
000002d0: 07fd d7bc 509a 3dbd b5a2 593e 4d1f 103e
000002e0: b339 8f3d a379 1d3e 0569 c2bd 7641 293c
000002f0: 5388 43be d9e4 023e ea8d 67be 8d9b 083e
00000300: dbba 3b3d 7dd8 a9bc 868d 58be 9803 0dbe
00000310: 9f95 7fbe f642 513e 9aea bd3b 5e73 703d
00000320: 8f91 213e 4ae8 7cbd a7e0 3a3e a806 013e
00000330: 46e2 13be 2b8c 85bc 9cb5 043e 05d0 21be
00000340: 632b 8ebc cb76 603e 9adf b93d 1483 623e
00000350: c552 0a3e d700 69be 68b5 733e 6dec 843d
00000360: b561 c2bd 4db3 673e 7f8b a8bd a3e0 843e
00000370: 6dc3 453e 9f12 26be 0c77 933c ee76 86be
00000380: cc80 223d 81e9 333e 4aa6 803d 54e8 a63d
00000390: 9e31 60be c539 d2bd af8d 0bbd b071 f63d
000003a0: adb9 21be 01f7 423e 40e9 65be 1f7f 26bd
000003b0: 7529 e93d 1399 a73d dd39 b43d 95c9 07be
000003c0: 5f0a 1cbe c70c 2abe b88b 81be 16dc 9fbd
000003d0: 2499 5a3e 64a5 83be c29f 723e 7378 803e
000003e0: 52ea fabd 5507 4f3e 2f94 cbbd befc 023d
000003f0: 54bb 3bbd 5eff 7e3e 0b2e 03be 11a0 03bd
-0.13624203 0.051091038 -0.115759365 -0.07847182 0.15487058 -0.12206502 0.097690634 -0.2186215
-0.054009352 -0.088609494 0.19710892 -0.15310179 0.13068382 0.09274825 -0.13037147 0.1908794
0.022592431 -0.075259626 -0.08223116 -0.19694132 0.039297722 0.2352544 0.047434695 0.2376206
0.09205965 0.05565001 0.0011847643 0.18118925 0.26896307 0.23429374 -0.08281182 0.02149005
0.26093516 -0.19523694 -0.23260699 0.20337738 -0.19030018 0.049057078 -0.24409513 0.092904866
0.02093319 0.2482536 0.07778551 0.05626277 0.17260934 -0.13560045 0.011901204 0.14916763
0.11848016 -0.14236093 0.17081702 -0.23321341 0.18192327 -0.109635204 -0.033304866 0.15067111
-0.0666931 -0.15468048 -0.0831909 -0.17866123 -0.085987605 0.043172374 0.20384952 -0.07753401
0.13159128 0.052114595 -0.13465194 -0.2044314 -0.0070556514 -0.14894475 -0.022986058 0.036706597
-0.26653862 -0.03393148 0.12857051 -0.014229621 -0.21577018 0.14248605 -0.17660722 0.23537025
0.11278545 -0.09923867 0.16855021 -0.03574144 0.015074733 0.27381083 0.021533445 -0.07559857
0.2174643 -0.19420622 -0.0634979 -0.014131777 -0.20555794 -0.1123379 0.10081141 0.1315047
-0.04965999 -0.23033209 -0.1735105 0.025386969 -0.014691382 0.23354952 -0.22663587 -0.16176157
0.18907395 0.055429514 0.22831792 0.21228059 -0.02536957 -0.062970534 0.15672618 0.1263067
0.15477534 -0.08615758 -0.15002894 -0.07455668 0.15104933 -0.20476136 0.04304956 0.040842634
-0.13378426 0.22378436 0.13974002 -0.24415894 0.15715186 0.039701432 0.25204265 -0.08513569
0.02650729 0.24185224 -0.20628743 -0.10822476 0.24828185 0.06438382 0.20838271 0.2464765
0.00036346816 0.13177757 0.22518992 0.037995253 -0.077199936 0.14345382 -0.14416811 -0.15193854
-0.08354074 -0.14032663 -0.042690568 0.009246236 -0.055379383 -0.055869404 0.23823568 0.24089456
-0.020785509 -0.031600945 -0.028674189 -0.05319418 0.24353541 0.21965423 0.088452525 -0.0420803
-0.026686614 0.087474465 0.0033191994 -0.08697023 0.13937645 -0.22982827 -0.07221901 0.2669498
0.23326811 0.25162956 0.0323991 0.14671192 -0.0903407 -0.017257443 -0.12181665 0.11537536
0.16972123 0.1728986 0.15143268 -0.13012111 -0.02636577 -0.046289742 0.21253474 0.1407444
0.06993427 0.15378432 -0.09492687 0.0103305485 -0.19094972 0.12782611 -0.2261273 0.13340588
0.045832496 -0.020733112 -0.21147737 -0.13770902 -0.2495942 0.204357 0.005795789 0.058703773
0.15778182 -0.061744966 0.1824976 0.12600195 -0.14441785 -0.016302189 0.12959903 -0.1580201
-0.017354673 0.21920316 0.09075852 0.22120315 0.13508137 -0.22754227 0.2379967 0.06490407
-0.094912924 0.22626992 -0.08229732 0.25952634 0.1931283 -0.16218041 0.018001102 -0.2626261
0.03967361 0.17569543 0.06281717 0.08149782 -0.21893927 -0.10264925 -0.034070667 0.12033403
-0.15793486 0.19039537 -0.22452259 -0.040648576 0.113848604 0.081834935 0.08800099 -0.13260491
-0.15238331 -0.16606437 -0.2530191 -0.0780565 0.21347481 -0.2571212 0.23693755 0.25091895
-0.12251724 0.2021764 -0.09940373 0.031979315 -0.045832947 0.24902102 -0.12810533 -0.032135073

encoder.0.bias f4 [64]
00000000: 7898 08be fc7b b63d 1989 663c 8cad 843c
00000010: a1c9 3ebe c606 25be c96c 183e 7304 e33d
00000020: 402c 3ebe 7056 b53d 0bbb f3bd cffd 04be
00000030: 7adc 4dbe 77a7 413e 3f6f dd3d d1c3 4bbe
00000040: 9fc5 d53d ef57 d73d e610 4c3e 56d2 05be
00000050: 8e71 613e 8ade 723e 432d b23d 14b4 db3d
00000060: 4921 b13d 5c45 d23d ed95 8c3e 1528 b33e
00000070: 9841 3f3e 9396 06be d2a0 4fbe 41a5 69bd
00000080: 2cd7 a43d 3d28 73be 802d 6cbe a3cc 12be
00000090: 60e9 15be d94d 823d 7d51 d83d 78d2 13be
000000a0: 4d4a cabd f070 2c3d 6cae 5a3e cc4d 993e
000000b0: de80 35be cdea ee3d 7cf6 083d 5427 7a3e
000000c0: 1d82 04bd 99e3 8fbd 64c6 163e 41e1 12bd
000000d0: dd06 47bd bbc3 7e3d 83a8 873e 47ae e73c
000000e0: 9644 11bd 7f8a 2bbe f893 bfbd 705e 613e
000000f0: 169e 343c a48b 08be 412c b43e 99bf fbbc
-0.13339412 0.08910367 0.014070773 0.016196035 -0.18631603 -0.16115865 0.14885248 0.11084833
-0.18571568 0.08854377 -0.1190091 -0.12987445 -0.20103636 0.18911539 0.10812234 -0.19898917
0.10438084 0.10514819 0.19928321 -0.13068518 0.22015974 0.23717704 0.08700039 0.107277066
0.08648927 0.102671355 0.27458134 0.34991518 0.18677366 -0.13143377 -0.20276192 -0.057042364
0.08048853 -0.23745818 -0.23064232 -0.14335875 -0.14639807 0.063625045 0.10562418 -0.14435756
-0.09877453 0.042099893 0.21355599 0.29942167 -0.1772494 0.116658784 0.03343819 0.24429065
-0.03235065 -0.07025833 0.14724118 -0.03585935 -0.04859053 0.062198382 0.26495752 0.028281344
-0.0354658 -0.16752051 -0.09354395 0.22008681 0.011024019 -0.13334519 0.35190013 -0.03073101

encoder.2.weight f4 [64]
00000000: 1b73 783f c29d 7a3f 6d7f 7f3f df83 7d3f
00000010: 3034 7f3f b4e8 7e3f ebf1 793f 744a 7a3f
00000020: ccbb 783f 47b8 7a3f d7aa 7d3f c85a 833f
00000030: b3d7 7c3f 9d7b 7f3f 3a06 7e3f 13c9 7d3f
00000040: cb72 7b3f 8498 7d3f 5493 733f ea0c 783f
00000050: f2ad 7e3f 41cc 7c3f c666 853f 2982 7f3f
00000060: 5c80 803f c274 793f 6798 773f f933 773f
00000070: 741f 803f 63b0 7c3f 0b2f 803f 06ca 7e3f
00000080: fc88 7e3f 0d8e 7f3f 41aa 7d3f c3a9 7f3f
00000090: 3de4 763f 50cf 7c3f 995a 7f3f 3b0c 7c3f
000000a0: 123f 7c3f 2398 7a3f 6e22 7f3f aa48 7c3f
000000b0: 64b9 7e3f 76ca 7f3f fed3 7e3f 8d94 7e3f
000000c0: 80fe 763f 4f94 7e3f dbd3 7c3f 8c7b 823f
000000d0: 04e8 7a3f 6063 7f3f ae6a 7f3f af69 803f
000000e0: f814 803f 7baa 7c3f 910e 7e3f 31c2 7f3f
000000f0: d814 773f b235 7f3f 34c7 7d3f 8f2b 7b3f
0.97050637 0.9789697 0.9980381 0.99029344 0.99689007 0.99573827 0.9763476 0.97769856
0.97161555 0.97937435 0.99088806 1.0262079 0.9876663 0.99797994 0.9922825 0.9913494
0.98222035 0.99060845 0.9514668 0.96894705 0.9948417 0.98749167 1.0421989 0.99807984
1.0039172 0.97443783 0.9671692 0.9656368 1.0009599 0.98706645 1.0014356 0.99527013
0.9942777 0.9982613 0.9908791 0.9986841 0.96442014 0.98753834 0.99747616 0.9845616
0.9853374 0.9788839 0.9966191 0.98548377 0.99501634 0.99918306 0.99542224 0.9944542
0.96482086 0.9944505 0.98760766 1.0193954 0.9801028 0.9976101 0.99772155 1.0032252
1.0006399 0.9869763 0.99240977 0.9990569 0.9651618 0.9969131 0.99132085 0.9811334

encoder.2.bias f4 [64]
00000000: 819d acb9 c671 413c cd8d f53b 3f05 8a3c
00000010: 07c9 e93b 8187 2a3c 6126 13bc aca6 ca3c
00000020: c4c1 2cbc 0a3b 643c 648a 793b 679a 9dbc
00000030: b54c 343c b06c 2d3c 3329 403c 2937 03bc
00000040: c9c9 67bb 9820 413c 6770 a1bb fc8c 333c
00000050: b6ba 55bc dea5 1dbc 10c3 123c 52f5 0c3c
00000060: 85cd 32bb 8604 f73b aa95 ab3c 0177 8cbc
00000070: 9ecc 4ebc d735 8a3c 4a35 82bc 71b0 413c
00000080: 4bfd 87bb 2f91 323c 14a0 98bc 4576 25bc
00000090: 33c2 893c b272 333c e56e 2d3c 272c 8cbc
000000a0: 53b4 96bc 27d5 5abc 1f82 d23b 1bb9 9cbc
000000b0: 2d57 bf3b a0b3 133c 7876 46bc 7c75 20bc
000000c0: 4ebb fc3b c7e8 b0bb 783f f13c 092c 203c
000000d0: 2113 94bb 184a 37bc b953 083d 3c94 27bc
000000e0: 0aca 20bc ddae 383c 84c2 36bc 9697 5a3c
000000f0: 69e7 33bc 1f7f fc3c 09b1 2f3c fd1b 69bd
-0.00032923746 0.011806911 0.0074937106 0.016848205 0.00713456 0.010408283 -0.008981318 0.024737678
-0.010544244 0.013930092 0.0038076872 -0.019238664 0.0110046165 0.010584995 0.011728573 -0.008008757
-0.0035368076 0.011787556 -0.0049267295 0.010958906 -0.013045004 -0.009622065 0.008957639 0.008603411
-0.0027283144 0.007538381 0.020945389 -0.01714659 -0.012622027 0.016871376 -0.01589455 0.011821852
-0.004150068 0.010898872 -0.018631019 -0.010098998 0.016816234 0.010952638 0.010585521 -0.017110897
-0.018396532 -0.013356484 0.006424203 -0.019131234 0.0058392496 0.009014994 -0.012113206 -0.009793635
0.007712758 -0.005398843 0.02944921 0.009776124 -0.004518882 -0.011187099 0.03328297 -0.010228213
-0.009813795 0.011272159 -0.011154775 0.013341805 -0.010980465 0.030822335 0.010723361 -0.056911457

encoder.2.running_mean f4 [64]
00000000: bfc5 66bd 7f87 c13d 8aa9 0e3d 7af4 c73c
00000010: e281 8cbd 0fda 27bd f362 9b3d bfb3 c83d
00000020: 44f9 87bd aa51 cc3d 3909 67bc 7644 18bd
00000030: ac90 49bd 4be4 e23d a935 9a3d ad9b 72bd
00000040: 80c2 863d bfb0 d33d 8f05 133e 5c05 81bd
00000050: a7d9 1d3e d2a4 3a3e a8f2 e03d c7ae d63d
00000060: 76cf a03d f32c 4a3d 584b 383e 4746 553e
00000070: 1ff2 063e 4b93 1fbd 33dc 84bd f81a 523c
00000080: ede4 773d 1ff5 3a3b 9527 6dbd 8dd9 7abd
00000090: 3149 c0bc ffe1 243d 28b9 fa3d 3da7 29bd
000000a0: 0442 11bd f3bc eb3c da21 313e b183 4f3e
000000b0: 28e7 53bd 68bb 853d 6087 af3c aa9e 2b3e
000000c0: af40 eb3c 93cd 3cbc 4e9b fe3d 115d 93bb
000000d0: 1ae3 f1bb acc9 f43c 886d 603e ec4a b13d
000000e0: 46e7 493d 05c9 6ebd b7b0 fdbb b052 093e
000000f0: bb3b b13c 5621 42bd 3136 743e bc9a 43bc
-0.05634093 0.09449672 0.034829654 0.024408568 -0.06860711 -0.04097944 0.075872324 0.09799909
-0.066393405 0.09976514 -0.01410132 -0.037174664 -0.049210235 0.110787 0.07529766 -0.059230495
0.06580067 0.10336446 0.14357589 -0.0629985 0.15415059 0.18226936 0.10983783 0.10482555
0.0785207 0.049359273 0.17997491 0.2082759 0.131783 -0.03895883 -0.06487312 0.012823813
0.060521055 0.0028527451 -0.057899076 -0.06124263 -0.0234724 0.04025459 0.12242347 -0.041419256
-0.035463348 0.028776621 0.1729807 0.2026508 -0.05173412 0.065298855 0.021426857 0.16759744
0.028717367 -0.011523622 0.12431966 -0.0044971784 -0.007381809 0.02988132 0.21916783 0.08656868
0.049292825 -0.058297176 -0.0077420133 0.13410449 0.021634927 -0.047395073 0.23848797 -0.011938747

encoder.2.running_var f4 [64]
00000000: 5148 f73a 8b48 283c 0441 903c 0629 683c
00000010: 938d b93b 1529 f33b 892f 1c3c f2dd 053c
00000020: 2f47 143b 5ff5 a53c e853 5c3c 688a 183c
00000030: 8239 383c ba7f 9a3c c9e5 543c 8f65 053c
00000040: 7e95 b13b 226a f53c 23d6 193c 6f90 3e3b
00000050: 64ab 9a3c 8d92 cd3c 808c 6c3d 0e42 683d
00000060: 342d 3e3c db9f a23b c91d ac3c 7e4a 9a3c
00000070: 649a 013d 843a 803b 2835 043c 6b13 903c
00000080: 45a4 183c a028 2d3d 92e7 fb3b 51d5 b43b
00000090: 9fb5 903c a955 483c dc3b 403d 10c6 f73b
000000a0: 29a3 843b c84d c63b 4912 353d d04c 2d3c
000000b0: 3624 283c 1416 b53c c3a1 263c e737 953c
000000c0: 8cf2 403c 8799 8d3b fa51 853c 5dc3 c93b
000000d0: fb10 0f3c 73cd 873b 7dd3 933c 1207 833d
000000e0: 79ad 023d 03ac d83b c790 4e3c 00d3 903c
000000f0: a648 bf3b 2080 a33b b39c 793c 17dc c13b
0.0018866156 0.010271202 0.017609127 0.014169937 0.005662629 0.007420669 0.009532818 0.008170592
0.0022625437 0.020258604 0.013447739 0.009310342 0.01124418 0.018859733 0.012994238 0.008141889
0.005419432 0.029957835 0.009389433 0.0029077788 0.018880554 0.025094295 0.05775118 0.05670362
0.011607457 0.004962904 0.021010296 0.018834349 0.03164138 0.0039132256 0.008069314 0.017587384
0.009316509 0.04227507 0.0076875174 0.0055185934 0.017664729 0.012227454 0.046932086 0.0075614527
0.0040477705 0.0060517527 0.04420689 0.010577396 0.01026254 0.022105254 0.010170403 0.018215133
0.011776578 0.0043212804 0.016274441 0.0061573223 0.008732076 0.0041443645 0.018045181 0.06397833
0.031903718 0.0066123023 0.01260776 0.017678738 0.005837518 0.004989639 0.015235114 0.0059161293

body.0.weight f4 [64, 1, 7]
00000000: 7638 2abe 7980 15be e5d1 983e c826 37be
00000010: 9bf3 5a3e 7dc7 a6be b81c 673d f2eb d9bb
00000020: 0ce3 83bd 13f0 8abe 0b4f 4d3e 2a9d ecbd
00000030: f488 a63d 89b2 1b3e 1a67 b7bd 92a9 12be
00000040: 5f85 7b3d 0b19 4dbe 9131 59be ab2d 86bd
00000050: 9cb9 b8be d0ed 2c3e e685 a83e 7c4c 7b3d
00000060: 4e35 14bd 1d8e 903e 3532 e2bc ece0 46be
00000070: 7acd 303e 9d31 0ebe 2e35 f5bd d7b4 9b3e
00000080: 4675 4ebe 3e66 10bd b15e 1f3d 7bad 91be
00000090: 8b7b 2bbe 5044 8ebd 93f2 873e 9df6 d73c
000000a0: 9bac 45be 1013 243d 4869 94be 540f 813e
000000b0: e7ab c33e 4d57 293e 998c e9bd e3f8 cb3d
000000c0: 9236 b43e 07c9 323e c47e b23e aec2 6c3d
000000d0: 9d3c b73c 1a3a a7be 78c0 c0bd 4b34 043d
000000e0: 6116 383e 9180 71be 68b8 9a3e d0c9 b03e
000000f0: fa45 003e 0ac4 043e ddf0 103e c04d 0a3e
00000100: 3398 e5bd 2b18 7c3e b1c0 15be 10ea 3cbe
00000110: d127 a3bd 6f39 753e b878 b03e 5d17 043e
00000120: 3c49 95be 5087 48be 3e01 353b 611f 12bd
00000130: 049a e93d 452e a53e abee 1a3e f37a a63e
00000140: 1fe5 693e 8175 463e f60d 933e 0b0e ae3e
00000150: c021 2b3e 64bc 54be a224 a23b 0672 4b3e
00000160: 254e bf3e e4f7 82be 28bc 9f3c b45a 3ebd
00000170: 6d7f d1bd fd75 acbe f296 ee3d 614d 9cbe
00000180: e9f4 613d 83e0 bfbd ad26 d0bd f126 98be
00000190: 22ef d4bd 2f87 3f3d 58de c43e 71ba acbc
000001a0: 53db 2bbe 776f 5abe b926 bfbe d71f 213e
000001b0: 7e55 71be ce1d 6dbe 5786 ab3e ab36 263d
000001c0: f401 343d b310 a63e 5ca0 8f3d 3fe8 063d
000001d0: 35d2 aa3e ca01 1a3e a57d 72be 9255 9ebe
000001e0: e7d8 a53e 3e45 36be e9b5 0abd 62ff 963e
000001f0: 9319 613c bf65 3ebd ec2c 02be 8487 933e
00000200: 9ab2 ba3d 0fd8 65be 077d 603e 3c4d 31be
00000210: 8e1e b03d 174d a5be d8be 673e 4721 30be
00000220: 1204 683c 178d 08bd 603f 1f3e 9ad2 ffbd
00000230: 7699 6c3e 9aa9 95be 0d0e bebe bec9 953d
00000240: 1478 79bd 80a5 bb3e 6a09 c1be 162b 503e
00000250: 027f 2abe 7750 803e 8146 15be 21dd c4be
00000260: fd94 90ba 15bc 9a3e ee9a c43e 3e26 a93e
00000270: ed24 903e 0452 c6bb a9a4 4a3d d7d5 a33e
00000280: e572 8dbd f1a8 0dbe 70e8 90be a204 d03d
00000290: 9a8e 96bd af7a ce3c 451a 873d c8cc 5b3e
000002a0: 8589 7bbe b320 a6bd 87ad 60be 23ae 423a
000002b0: 42f0 acbc e141 483e 8504 ffbd a0e6 b4be
000002c0: f03c 2fbe a9f7 56bd 285d 3a3e a749 353c
000002d0: 8106 38bc cdfd 9ebe ec66 b6be 83db cb3c
000002e0: 5f06 a53e a48c aebe 0ebc b1be 1cbf 7e3e
000002f0: c2f5 bbbd 98cd 3a3e f540 3cbe 0f1e a53e
00000300: 11c5 82bc c28f 96be 6e0d 8cbe 32ad b53e
00000310: 7010 81bd dca2 b1be ce7d 74bc 6e26 ffbd
00000320: b4df 77bd 7f3b 9ebe 35dc 6d3e adc8 fd3c
00000330: 6bef 7c3e c568 69be c7cf a1be e991 15bd
00000340: 8bee 23bd 3aed ccbd 4dc6 b33e b0b7 1d3e
00000350: f153 b03e 164f b3be ff42 5abd 85f1 033e
00000360: 3c74 9dbe 6ad5 a2be 9fb4 94be a88e 4d3e
00000370: db13 213e dc3b 5a3d cdb4 11bd b911 a7bd
00000380: bb4a d1bc 9008 05be 048e 973e dd47 3f3e
00000390: 2219 1a3e d217 b83e 8b52 e5bc 6b6e a63e
000003a0: f358 b1be 9655 aa3e 3c89 40bc d715 75be
000003b0: 3332 253d e9de efbd 9248 b5be 896e 9b3e
000003c0: 2a41 adbe 88c7 18be 0ce0 f33d e5f0 c53d
000003d0: d87f 843e 2e25 a8be 2c19 123d 8420 88be
000003e0: b638 0abe 20db acbe 302f acbe 4e7c 58be
000003f0: 9d2b 8a3e 1092 adbe 63c2 2bbe a55a e4bd
-0.166231 -0.1459979 0.29847637 -0.17885888 0.2138199 -0.32574072 0.056423873 -0.0066504413
-0.0643979 -0.27136287 0.20049684 -0.11553414 0.081315905 0.15204825 -0.08955212 -0.14322498
0.06140649 -0.20029084 -0.21210314 -0.06551679 -0.3607911 0.16887593 0.32914656 0.061352238
-0.036183648 0.28233424 -0.027611831 -0.19421738 0.17265883 -0.13886113 -0.11973034 0.30411407
-0.20161924 -0.035253756 0.038908664 -0.28452668 -0.16746347 -0.06946623 0.26552257 0.026362712
-0.19304125 0.040057242 -0.28986573 0.25207007 0.3821709 0.16537209 -0.1140377 0.09959581
0.35197884 0.17459498 0.3486234 0.05780285 0.02236777 -0.32661515 -0.094117105 0.032276433
0.17977287 -0.235842 0.30218816 0.3452897 0.12526694 0.12965408 0.14154382 0.13506222
-0.1121067 0.24618594 -0.14624287 -0.18448663 -0.07966579 0.2394769 0.344671 0.12899537
-0.29157436 -0.19582868 0.0027619149 -0.035674457 0.11406329 0.32261863 0.15130107 0.32515678
0.22841309 0.19380762 0.2872159 0.3399509 0.16712093 -0.2077499 0.0049482146 0.19867715
0.37364307 -0.2557975 0.0194989 -0.04647322 -0.10229383 -0.33683768 0.11649884 -0.30527785
0.055165205 -0.09368994 -0.10163627 -0.2971721 -0.103971735 0.04675978 0.38450885 -0.021084996
-0.16782884 -0.21331583 -0.3733423 0.15734802 -0.23567769 -0.23155901 0.3350093 0.04057948
0.043947175 0.32434615 0.07013008 0.03293633 0.333635 0.15039745 -0.23680742 -0.3092466
0.32392046 -0.17799851 -0.03386489 0.29491717 0.0137390075 -0.04648375 -0.12712449 0.28814328
0.09116097 -0.22445701 0.21922694 -0.17314619 0.08599578 -0.32285377 0.22631395 -0.17200194
0.014161127 -0.03333768 0.1555152 -0.12491341 0.23105416 -0.29230958 -0.37120095 0.0731387
-0.06090553 0.36649704 -0.37702495 0.20328936 -0.16650012 0.2506139 -0.14577676 -0.38449958
-0.001103073 0.3022162 0.38399452 0.3303699 0.28153172 -0.0060522575 0.04947344 0.31999084
-0.0690668 -0.13833977 -0.28302336 0.10157134 -0.07351418 0.025204984 0.065968074 0.21464837
-0.24564178 -0.08111706 -0.21941195 0.0007426461 -0.021110658 0.19556381 -0.12452034 -0.35332203
-0.1711309 -0.05248228 0.18199599 0.011064923 -0.011232019 -0.3105301 -0.35625398 0.024884945
0.32231423 -0.34091675 -0.34713787 0.2487759 -0.09177734 0.1824249 -0.18384154 0.32249495
-0.01596311 -0.29406554 -0.27353996 0.354837 -0.06301963 -0.34694564 -0.014922572 -0.12458502
-0.060516074 -0.30904767 0.23228534 0.030979479 0.24700706 -0.22793873 -0.31603834 -0.036516104
-0.040022414 -0.10006185 0.3511223 0.15402102 0.34439042 -0.35021275 -0.05328655 0.12885101
-0.30752742 -0.31803447 -0.29044053 0.2007395 0.1573023 0.053279743 -0.035572816 -0.08157677
-0.02554833 -0.12991548 0.29600537 0.18679757 0.1504865 0.35955673 -0.027993461 0.32506117
-0.34638175 0.33268422 -0.011751469 -0.23934112 0.040331077 -0.117124386 -0.3540693 0.3035777
-0.3383878 -0.14919865 0.11907968 0.096650876 0.25878787 -0.32840866 0.035668537 -0.26587307
-0.13498196 -0.3376093 -0.3362975 -0.21141168 0.269864 -0.339005 -0.16773371 -0.111501016

body.0.bias f4 [64]
00000000: 908f 813e 3972 8abe eb11 853e 0cb5 90bb
00000010: e882 4f3d df14 c13e f92e acbe c20b 50be
00000020: 22bb 933e 082e 89be 431b 913e 0d84 9bbe
00000030: 8723 e33d 4d55 6d3e 6e80 a3be d017 00be
00000040: 20ea ff3d 678b 5e3e a8c5 f7bd 9a2e 7cbe
00000050: 14eb 10be 47f7 14bd 1239 7f3e 279b febd
00000060: b50c 0e3d 2372 ab3e fe5a 223e fb87 b93d
00000070: 6927 cf3e ac3f d63d 0e69 33be bfd0 bfbd
00000080: ab3f 11bd 09aa aa3e 92ec 65be e425 093e
00000090: 5e5e 9d3e 9884 5ebd 2c33 b23e f0e1 a33d
000000a0: 1250 8f3d 73d3 95bd f4de ab3c c234 4c3e
000000b0: 550f ad3e 4cc8 ab3d 50b9 153e a1f5 bfbd
000000c0: b1ac 42be 4511 17be a407 35bd 339c 68be
000000d0: a3ca 1ebe 3943 8cbe 1a0e a6be 3473 aebe
000000e0: 51af 9c3e 226f 31be fe4c 963d 1eb5 2abe
000000f0: 140c b93e beea 903e 21a9 9c3e f06f 213e
0.25304842 -0.2704027 0.25990233 -0.0044161137 0.05066195 0.37711236 -0.33629587 -0.20316985
0.28853709 -0.26792932 0.28341112 -0.30374184 0.11090761 0.23177071 -0.31933922 -0.12509084
0.12495828 0.21732865 -0.12098247 -0.24627152 -0.14152175 -0.036368635 0.24924114 -0.12431937
0.034680087 0.33485517 0.15855023 0.09059139 0.40459755 0.10461363 -0.17520544 -0.09365987
-0.03546111 0.33332852 -0.22453526 0.1339336 0.3073606 -0.05432567 0.34804666 0.080020785
0.06997694 -0.07315721 0.020980336 0.19942 0.3380076 0.08387813 0.14621472 -0.09373022
-0.19011189 -0.14752682 -0.04419674 -0.22715835 -0.15506987 -0.27395037 -0.32432634 -0.34072268
0.30602506 -0.1732755 0.07338904 -0.16670653 0.36142027 0.28304094 0.30597785 0.15765357

body.1.weight f4 [128, 64, 1]
00000000: 62cb fb3d 7a4f 02be b16f 963d b062 9f3d
00000010: 45b5 c03d 728d 96bd 743c 99bd f637 c7bc
00000020: 568b d43c bad0 f8bd 7975 fb3d 32ae 433d
00000030: c609 92bd 746d ea3d 0c9a f23d 1a7e 873d
00000040: 96da 1d3d 1ec4 363c 6b6f 873d 1f14 dcbd
00000050: bd6e d63d 9e0d b03d 9bd1 c3bd f44b 763d
00000060: 4fd1 bc3c 5fe5 bcbd 8df8 b0bd 4bd1 8e3c
00000070: 607b a2bd 3e53 5a3d 8b03 613d ba61 d33d
00000080: 22b2 89bd 5985 6dbd e775 7cbc ca9c 92bd
00000090: 79b6 aebd a123 693d 973e 02bd 7e0d 893d
000000a0: 68ea 18bd 2ce3 aebd b2f3 adbd 40d9 ae3d
000000b0: 563c e13d 42a2 643d 469a abbd 3deb b4bc
000000c0: 4c0f 78bd e93d 8b3d 8a33 0f3e 3697 d33d
000000d0: 83da dabd 89c9 fa3d dd49 863d 212d e0bb
000000e0: 66d2 9bbd 42e7 a7bd 376d dc3d e496 123d
000000f0: 897a e4bc ef15 28bd ed58 483d f578 4cbd
00000100: 485b 643c 95bb a83d d25f 4e3d aa21 e53d
00000110: f1e3 af3d 8f06 d23c da60 753d 40e8 de3d
00000120: ab67 c63d d993 9ebd 3e52 96bc e425 6d3d
00000130: ac09 9dbd a527 bbbd b5b5 6fbd d8c5 043d
00000140: 7df0 6e3c cef9 e9bd d58c ccbd 8bf9 8d3d
00000150: 4223 a53d 3d77 b33d 2dd0 b33d e874 803d
00000160: 26cf d73c 2239 4c3d b6c5 26bd eb1a 973c
00000170: 4b4e f83d 705e 893d c864 b2bd dd64 45bc
00000180: 321a d3bd 0d33 d83c a6f6 9c3c 5940 a5bd
00000190: a3bc e13c d733 a3ba 3540 89bd 4227 d4bc
000001a0: b773 c03d 0f69 813d 4ea4 acbc 4ce6 dc3d
000001b0: 8fc1 5c3d 7e77 d9bd 232f e9bd b9df c9bc
000001c0: f524 183d 28b2 d43c f530 e33d ff3f 903b
000001d0: aa8a d43c 5e22 153c 1fc4 4abd 4f9d 4a3d
000001e0: f389 aabd fc4d e03d a0b2 b63d 8830 4f3d
000001f0: d210 e1bd 1c15 6f3d 2540 c4bd 2e06 debd
00000200: 6db9 aebd ba57 b43d 06cc 123c 4871 ca3c
00000210: 0853 f73d 412f 89bc bbc7 713a 7eb5 893d
00000220: 71a0 743c e640 e03d 9867 11bd 78d9 debd
00000230: d17c f03c 9ab7 04bd 269a 8b3d bb6a e9bd
00000240: a52a 7a3d 617f 2e3d 8ccc 943d 4f5a 9abd
00000250: dbe5 ff3c 85fb aabd 0da5 9cbd f496 a63d
00000260: 4e86 02bd ff32 77bd 9e5b 8bbd b005 d8bd
00000270: f517 51bd a36f 623d 5ad6 d73d b23f 223b
00000280: fdc5 7ebd 5859 093d d20f fabd 15e7 b5bd
00000290: 65e3 dcbc 4c28 94bd 0601 7e3d a166 e93b
000002a0: c8c5 963d 5b80 22bc 0912 6cbd 12f0 20bd
000002b0: a05e 60bd d761 803c 84db 1d3c 74fa f73d
000002c0: 0202 893c 8c37 e0bd a4af eabd 6928 7dbd
000002d0: e418 abbd fcf0 77bd 2619 85bc f005 5ebd
000002e0: 3962 eb3d 0cee aa3d 7677 043e ba93 c03d
000002f0: 111e 253d a863 573d 008e be3d e73b e9bc
00000300: 912d a9bd 0e51 893d c44c 9a3d d663 1e3d
00000310: 4d9b ef3d abab 693d b70b cfbb a5e9 603d
00000320: a861 47bd 18c8 7f3d bf1f fe3d cc5b c0bc
00000330: e89a 053d bc38 92bd 29d6 313d 9061 2cbd
00000340: 665d 4fbb 7c89 19bd 8f7e f0bd 2268 d9bc
00000350: c481 ed3c b030 d8bd 1517 d63c e8b7 8ebd
00000360: 018a 90bd 8045 58bd ef8a 96bd e35c debd
00000370: bd46 b3bd b1bc 7a3d 99d9 30bd af7d 303d
00000380: 7a7c ea3d 6ca6 20bc 7675 713d 1337 003e
00000390: 50db bb3d 4ac6 993c a5be 4cbd 47b3 87bd
000003a0: fea8 9bbd 24b8 c13c cf9c bf3d 1fc5 4a3d
000003b0: 9e67 a8bc 64fa 11bd 342d 81bd 373f ac3d
000003c0: 3009 9ebb 54e4 973d 7f0b a7bc 116e 8b3d
000003d0: 0d29 84bd d3c7 97bd 61fe c83d 8982 95bd
000003e0: d9d7 fbbc 5caf dcbd 80c0 ddbd 7434 00be
000003f0: 3481 a73d d244 2abc 6a92 a3bd 90f7 f6bd
0.122946516 -0.1272563 0.07345522 0.07782495 0.094095744 -0.07351197 -0.07482234 -0.024318676
0.025945347 -0.121491864 0.122782655 0.047773547 -0.071307704 0.11446658 0.11845788 0.06615849
0.038538538 0.011155156 0.06613048 -0.10746025 0.104703404 0.08596347 -0.095614634 0.06013103
0.023049025 -0.092234366 -0.08641157 0.017433783 -0.07933688 0.053302042 0.05493502 0.10321374
-0.06723429 -0.0579885 -0.0154089695 -0.071588114 -0.08530898 0.056918744 -0.03179797 0.066920266
-0.037332922 -0.08539423 -0.08493747 0.08537531 0.10997836 0.055818804 -0.08379035 -0.022084827
-0.060561463 0.06798918 0.13984504 0.103315756 -0.10686209 0.12245471 0.06557057 -0.0068413173
-0.0760849 -0.08198406 0.107630186 0.03578843 -0.02789046 -0.041036543 0.04891293 -0.04992004
0.013937779 0.082389034 0.05038435 0.111880615 0.08588398 0.025637893 0.059906818 0.10884142
0.09687742 -0.077430435 -0.018349763 0.057897463 -0.076678604 -0.09138421 -0.0585229 0.03241524
0.014583704 -0.114245996 -0.09987799 0.06932362 0.080633655 0.08762977 0.08779941 0.06272298
0.026343893 0.049859174 -0.040715896 0.018445453 0.12124308 0.06707466 -0.08710629 -0.012047973
-0.10307731 0.02639153 0.01916058 -0.08068914 0.02755577 -0.0012451363 -0.067017 -0.025897626
0.09397071 0.063188665 -0.02107444 0.10786113 0.05389553 -0.106184945 -0.11385944 -0.024642812
0.03714462 0.025963858 0.11093322 0.00440216 0.025945026 0.009102432 -0.049503442 0.049466427
-0.08327093 0.10952374 0.08920789 0.050583392 -0.10989536 0.05836974 -0.09582547 -0.108410224
-0.08531461 0.08805795 0.008959776 0.02471222 0.12076384 -0.016746165 0.00092231826 0.0672407
0.01493083 0.109498784 -0.035499185 -0.108813226 0.029356392 -0.03240166 0.06816511 -0.1139731
0.061075825 0.042601947 0.07265577 -0.07536756 0.031237533 -0.08348755 -0.076486684 0.08134261
-0.031866364 -0.060351368 -0.06804584 -0.1054796 -0.051048238 0.055282246 0.10538931 0.0024757204
-0.062200535 0.03353247 -0.12210049 -0.08881966 -0.026963899 -0.072342485 0.062012695 0.00712283
0.073619425 -0.009918298 -0.057634387 -0.03929145 -0.05477774 0.015671654 0.009634856 0.12108317
0.01672459 -0.10948095 -0.11459282 -0.061806116 -0.08354357 -0.060532555 -0.016247343 -0.05420488
0.11493344 0.08346185 0.12936196 0.094031766 0.040311877 0.052585274 0.09304428 -0.028470946
-0.08260644 0.06704913 0.07534173 0.03866943 0.11699543 0.05704848 -0.006318535 0.05491032
-0.048677117 0.062446684 0.12408399 -0.023481272 0.032618433 -0.071397275 0.04341713 -0.04208523
-0.0031641363 -0.03748463 -0.11742889 -0.026538912 0.028992541 -0.105561614 0.026134053 -0.06968671
-0.07057572 -0.052800655 -0.07350718 -0.108575605 -0.08753727 0.061215106 -0.043176267 0.04308861
0.11449523 -0.009805303 0.05894991 0.12521009 0.0917269 0.01877131 -0.0499865 -0.06625991
-0.07600592 0.023647375 0.09356081 0.049504396 -0.020557221 -0.03563918 -0.0630745 0.08410495
-0.0048228726 0.07416597 -0.020391224 0.06808103 -0.06453142 -0.0741116 0.09814144 -0.07300288
-0.030742573 -0.10775635 -0.10827732 -0.1252001 0.081789404 -0.010392385 -0.07986911 -0.120589375

body.1.bias f4 [128]
00000000: afa4 9d3d 05e1 aabd c8b3 bf3c 7053 9b3d
00000010: 23e1 1c3d 8114 063e 0177 0ebd e071 583c
00000020: 3451 8c3c 2787 21bd 25d3 87bc cf66 013e
00000030: 08ec e2bd 0710 0b3d ec73 cbbd dd4b 93bd
00000040: 4c94 3b3e 5a13 d0bd 2313 573d 3bf0 6cbd
00000050: 9a51 ecbb 26af 383d 580b acbd 1909 ea3b
00000060: 7e7f ad3d 8e72 59bb 5d91 c2bc 896a 313b
00000070: cbe4 62bd dc29 0e3e 4a8e 873d dec1 bf3c
00000080: 03a3 bfbd 6869 253d b830 fd3a 95b4 17bd
00000090: 0c3b c43c 8628 cd3c 3973 95bd 15ae e7bd
000000a0: 1b05 553d b422 d53d 8b43 64bd f669 0c3d
000000b0: 70d6 413d 0f9b 6bbd 06e0 c9bd d27b 753d
000000c0: 329f 533d 69b3 89bd 4bdc 5cbd 3912 06bc
000000d0: 5958 f7bc 07fd 163d 43c6 a13c 41a8 003c
000000e0: 52fc 1c3e c2b1 3d3d 162f 113e c37e ec3d
000000f0: 7ec9 e93c 7877 fe3d d20b a4bd 734b 0c3e
00000100: 78a8 63bd f455 4ebd 8baf bb3d 4d8e db3c
00000110: ba2e abbc 1a34 f03d 4d95 233d dd79 053d
00000120: 303a 713d 1d89 053d b6ed af3d 62cf e23d
00000130: f59f b2bd d7f2 183e a0e7 6c3b 5659 63bb
00000140: 2a46 523d 9a32 1bbd 0f64 e03d 6683 013e
00000150: 62d2 a53c 3be9 373d 41a0 1dbd 63a8 193c
00000160: 7870 bf3c 3efd 963d 12c3 6abc 4d1e 1e3d
00000170: b3fe 253e 9029 cfbc 2ced 2cbc d191 123e
00000180: 5d57 753d 2904 d3bd 0a10 b33d aa86 fd3d
00000190: 4735 133d 501c 073e 63ff 153e 53e0 7b3c
000001a0: 2ea0 033e 997e 7a3d 4a06 bbbc da8a 123c
000001b0: 43ee 003d 4589 143e 7b2a e2bc ddaf de3d
000001c0: 2b7c d1bd d44a ac3d 401b 1cbd d4e1 bb3d
000001d0: 0856 2f3e f808 113e ee2b 673d 4b06 2a3d
000001e0: b2a9 453c d84b a1bd 7e80 fa3d d396 a8bd
000001f0: 54e5 2f3d 4261 22bd c64c 46bd c0e0 053e
0.076974265 -0.083437 0.023401156 0.07584274 0.038300645 0.13093759 -0.03478146 0.013210744
0.017128564 -0.039435532 -0.016580174 0.12636875 -0.11080176 0.03395083 -0.0993422 -0.07192204
0.1831829 -0.10159941 0.052508485 -0.05784629 -0.007211876 0.04508891 -0.08400601 0.007142198
0.08471583 -0.0033179852 -0.023750955 0.0027071557 -0.055393975 0.13883156 0.06618936 0.023407873
-0.09357264 0.040383726 0.0019316887 -0.03703745 0.023953937 0.025043737 -0.072973676 -0.113125004
0.052006822 0.1040701 -0.055728476 0.03428074 0.047323644 -0.057520922 -0.09857182 0.059932537
0.051665492 -0.06723673 -0.053921025 -0.008183056 -0.030193495 0.0368624 0.019747859 0.007852615
0.15330628 0.0463121 0.14178118 0.115476154 0.028538462 0.124251306 -0.08010067 0.13700657
-0.055580586 -0.05037494 0.091643415 0.026801253 -0.020896304 0.117286876 0.039937306 0.03258692
0.058893383 0.032601465 0.08590262 0.110747114 -0.08721916 0.14936386 0.0036148801 -0.00346907
0.051336445 -0.037890054 0.10956585 0.12647781 0.02024192 0.04490016 -0.03848291 0.009378525
0.023369059 0.07372521 -0.014328735 0.038603116 0.16210441 -0.025288373 -0.010554593 0.14313437
0.05989777 -0.10303528 0.087432936 0.12379201 0.03593948 0.13194394 0.14648204 0.015373307
0.12854072 0.06115589 -0.022830147 0.008944238 0.031477224 0.14505489 -0.027608147 0.10873387
-0.10228761 0.0841271 -0.038111925 0.09173933 0.17122662 0.14163578 0.05643838 0.041509908
0.012064384 -0.07875794 0.12231539 -0.082318924 0.042943314 -0.039643534 -0.04841306 0.13074017

body.3.weight f4 [128]
00000000: 7e37 7c3f 152f 7a3f 8eb3 7b3f b300 803f
00000010: 7e44 803f 7fce 813f e2eb 7d3f b709 783f
00000020: 49ae 7f3f 05a4 783f bfaf 7c3f c279 7e3f
00000030: 3c00 7e3f 92aa 743f d1bb 853f 7feb 7d3f
00000040: a579 7a3f 8caf 803f 19d9 803f 1017 803f
00000050: a5b7 7b3f aee4 803f 6dad 7e3f 7be6 793f
00000060: 5b79 7c3f d090 7d3f 8676 7c3f 68f1 7d3f
00000070: dbcf 803f 2a1e 7e3f dc68 7c3f 3df7 7a3f
00000080: c899 7c3f 7593 743f b149 7c3f ee20 7a3f
00000090: 9813 7f3f 99c1 7b3f 4e55 7e3f 5f88 813f
000000a0: 6c5d 7e3f dc8b 783f 4a55 7f3f a152 7d3f
000000b0: 10f7 7c3f 86ec 7e3f 3c81 803f 9119 7f3f
000000c0: 06d2 7e3f 8e01 803f 45ca 7f3f 850b 803f
000000d0: 4e1f 803f f78d 7f3f af08 7f3f f6e8 793f
000000e0: e042 803f 475c 803f e827 783f f850 803f
000000f0: fbba 803f 5e32 7d3f 8e6a 813f 7150 7c3f
00000100: c36a 7d3f cd3a 803f 1256 7a3f a4df 7d3f
00000110: 271d 7a3f f788 7f3f e79b 7e3f 088d 7d3f
00000120: 3102 7d3f e3ff 783f 27b8 7f3f d5dd 773f
00000130: b76e 7f3f 11ee 743f dd93 7b3f 0e6c 7f3f
00000140: 8ef8 7f3f e0f6 7e3f fe31 7d3f 5d78 7e3f
00000150: 6e05 803f 4cde 7f3f b52e 7f3f 8fbb 803f
00000160: 900c 803f 83fa 7b3f bd4d 7d3f 4c4e 7e3f
00000170: b44d 7a3f e5fc 7d3f 405b 783f 4525 813f
00000180: 881d 7b3f 3224 803f 09ce 7b3f f72b 803f
00000190: 09eb 783f 0e94 803f a8a2 813f 132a 7a3f
000001a0: fa2b 803f 42dc 803f d39c 7c3f d40a 7f3f
000001b0: cd07 7d3f 34e8 7f3f 2ce4 7d3f 7693 803f
000001c0: 4b43 803f cfc7 7b3f c6f7 823f ae2a 7f3f
000001d0: b6ca 7a3f f1ac 7b3f 8109 7b3f 1121 823f
000001e0: cc93 7b3f 45c8 793f 4ea9 7c3f f1c5 793f
000001f0: d702 803f 9c64 803f ed82 803f 3a67 7c3f
0.98522174 0.9772809 0.98320854 1.0000213 1.0020902 1.0141143 0.99188054 0.96889824
0.99875313 0.97125274 0.9870567 0.9940454 0.9921911 0.9557277 1.0447942 0.99187464
0.97841865 1.0053573 1.0066253 1.0007038 0.98327094 1.0069788 0.99483377 0.9761731
0.98622674 0.9904909 0.9861835 0.9919648 1.0063432 0.99264777 0.985975 0.98033506
0.9867215 0.955375 0.98549944 0.97706497 0.9963927 0.9834228 0.99348915 1.0119742
0.993613 0.9708841 0.99739516 0.98954207 0.9881449 0.99579656 1.0039439 0.99648386
0.9953922 1.0000474 0.99918014 1.0003515 1.0009553 0.99825996 0.99622625 0.97621095
1.0020409 1.0028161 0.9693589 1.002471 1.0057062 0.9890498 1.0110643 0.98560244
0.9899103 1.0017945 0.9778758 0.99169374 0.9770073 0.99818367 0.9945664 0.9904332
0.9883147 0.9726545 0.9989037 0.96822864 0.9977831 0.9567576 0.98272496 0.99774253
0.9998864 0.9959545 0.9890441 0.9940241 1.0001657 0.99948573 0.99680644 1.0057238
1.0003834 0.98429126 0.98946744 0.9933822 0.97774816 0.9921401 0.97014236 1.0089499
0.98091936 1.0011046 0.9836126 1.0013417 0.97233635 1.0045183 1.0127764 0.9772045
1.001342 1.0067217 0.98676795 0.996259 0.9884003 0.9996369 0.9917629 1.0045002
1.0020536 0.9835176 1.0231864 0.996745 0.9796556 0.9831076 0.98061377 1.0166341
0.98272395 0.9757121 0.9869584 0.9756766 1.0000867 1.0030704 1.0039955 0.9859501

body.3.bias f4 [128]
00000000: accb d7bc f912 9cbc 42ee d4bb 3330 b3bb
00000010: da38 903d e548 c63d 49b9 c0bc 1890 b4bc
00000020: e0ce fd3c be57 82bc 8161 44bd 376b 71bc
00000030: 2afa 66bc 8b6b d93d 8326 37bd 8576 e23c
00000040: 0a13 ef38 dce4 20bd bcd5 903d f6c6 b5bc
00000050: ef83 fabc 451b cebc 05f8 0c3c 7964 eebc
00000060: 1ef7 a83c e5b3 933c fd66 883d e931 793d
00000070: 3a45 ac3d 4656 b4ba af69 413c 88cb 2fbc
00000080: 9a20 b8bc f858 9c39 1f96 8abc 0b1d 7cbc
00000090: fe56 a23d 9fa6 90bc e553 babc 4bde 5dbc
000000a0: a8c4 643c 712b 02b8 5dc2 a6bd 8f6d 4fbd
000000b0: 21c0 1f3d b1a8 923b 9bb8 fbbc 2c34 1dbc
000000c0: e308 263c e97a 8a3c d9c6 b03c b7eb 703b
000000d0: 109b 54bd ea7a 983c ce77 5d3c 98d3 38bd
000000e0: 9adf c73d 9119 dbbc 60be 313d e4bd ad3c
000000f0: 8f25 163d cb98 58bd 8f6d 9a3a 4333 693c
00000100: ea04 443d e51f 2dbd a260 ecbc 1b3a 513b
00000110: 2cd5 5abd 130d 453b 7f3a 473e a568 e1bd
00000120: 01bb 073d 4818 a93d 4873 4d3d f734 11bd
00000130: 2579 afbb 1c28 e6ba de92 89bc 2073 f2bb
00000140: 086b 1abd 714b 2dbd 640a 80bd 580f 833d
00000150: e5c8 9f3d de46 613d 04a7 323d de34 acbb
00000160: f99e 873d 40ec e43c dab2 8ebc 7729 033d
00000170: 0e24 2b3c 32d4 063d 8b09 bbbc d7c6 d7bc
00000180: c11c 8fbe 64cf b0bc 19e4 053d 62b1 993d
00000190: 3891 6ebd 7ef3 f13d 3877 d73b a731 a73b
000001a0: d05e 5bbd 80bf 2dbd 88f4 92bc 472d 32bc
000001b0: a776 703c 1a7b 6abd 8a9b 613d 231c fa3c
000001c0: d547 7b3d c4e0 f1ba 3bda c83d 619e 223d
000001d0: 6aec 0a3c 103e a8bc 5c4d 643c 0fe3 9e3c
000001e0: 5008 1dbc f24f 50bc 6705 62bb 460c 0f3d
000001f0: 154b 3f3c 1cde e7bc 4fd8 583d 0999 b23d
-0.026342236 -0.019052016 -0.006498129 -0.0054683923 0.070420936 0.09681872 -0.02352585 -0.022041366
0.030982435 -0.01591098 -0.04794455 -0.014735035 -0.01409773 0.10616215 -0.044714462 0.027644405
0.000113999544 -0.039280757 0.070720166 -0.022189599 -0.030580489 -0.025159488 0.008604054 -0.029100643
0.020625647 0.018030116 0.066602685 0.060838614 0.084116414 -0.0013758622 0.011804982 -0.010729678
-0.022476483 0.00029820926 -0.016917286 -0.015387784 0.07926749 -0.017657576 -0.022745082 -0.013541768
0.013962902 -3.1034873e-05 -0.081425406 -0.050641593 0.039001588 0.004475676 -0.030727675 -0.009594958
0.010133955 0.016904311 0.021579193 0.003676159 -0.05190569 0.018613297 0.013517333 -0.045123667
0.097594455 -0.02674559 0.043394446 0.021208711 0.036656912 -0.05288009 0.0011781919 0.014233413
0.04785625 -0.042266745 -0.028854672 0.0031925503 -0.053425953 0.0030067607 0.19455908 -0.110062875
0.033137325 0.082565844 0.05015877 -0.0354509 -0.0053550177 -0.0017559561 -0.016793665 -0.007398978
-0.03769973 -0.042308275 -0.06251982 0.06399411 0.078019895 0.054999225 0.04361631 -0.0052553257
0.066221185 0.027944684 -0.017419267 0.032021966 0.010445608 0.03291721 -0.022831699 -0.026339931
-0.27951625 -0.021583267 0.032688234 0.07504536 -0.05824396 0.118140206 0.0065754913 0.0051023546
-0.053557217 -0.042418957 -0.017938867 -0.010875053 0.014676726 -0.057246305 0.055079974 0.030530995
0.0613478 -0.0018453826 0.09807249 0.039701823 0.008479217 -0.020537406 0.01393446 0.01939538
-0.009584501 -0.012714373 -0.0034488083 0.034923814 0.011675616 -0.028304152 0.052940663 0.087205954

body.3.running_mean f4 [128]
00000000: ca87 a53d 8789 30bd ba36 503d a29f 433d
00000010: d42d 403d fe2a bf3d 7520 9b3d 0e2d 3d3e
00000020: 2221 0d3e 461a 613c fa75 863e cbe0 183d
00000030: a194 f23b 368d c23c 41cf 673d 3303 003e
00000040: c87e 1f3e 6f68 a93c 7165 ce3d a0e3 f53d
00000050: 66ec 863d 76a5 fd3d 4ba5 8ebb 53e7 f83d
00000060: 7e9d ed3d 7c82 313d 0349 513d efe6 6a3c
00000070: 59e2 a53d a066 043e 2098 2b3d 2526 ae3c
00000080: 792a 893c 8878 573e 22c9 4c3d b3e2 97bc
00000090: 56ae ea3d 6f94 323d 2e21 353e 9eb0 b2bb
000000a0: 6167 453e 8ef5 433d 4b11 8b3d 5ecd f83d
000000b0: 2e4c 873d d4ed e03d 88ee b03d f8ee 623d
000000c0: e8b8 aa3d 9925 97bb 2538 d83c 1414 c93d
000000d0: ba39 d63d 0ecc 033e 0d5f c33d 3f3e da3c
000000e0: 2272 ad3d 7eae 0b3e f4ec b53d 5d43 403e
000000f0: 5312 d23d 106c 543d 63b3 6a3e 09dd 0a3e
00000100: f06e 7a3d 135e 2fbb ae0e 5cbb 34e5 833d
00000110: fb75 363d cfad 593d 4476 f23d 276e 053e
00000120: 68f4 2c3d f4e1 f33d 80ad 013e 62a5 583e
00000130: d2f7 2abd d121 5d3e 894c 9d3d 496e 003e
00000140: 4225 9e3c b343 ab3d 0ccc bb3d 574e 6c3d
00000150: e074 423d 8058 0b3c b3c1 95bc 5fcd 203e
00000160: 4a65 3c3d 2b71 553e 8759 113d 6aee 3f3d
00000170: a995 4e3e b202 783d b072 b93c 1a41 253e
00000180: 3781 093e 8401 8c3c 7495 063e a456 553d
00000190: a947 ab3d 9dd7 7a3e 4699 aa3d 3848 9d3d
000001a0: ef1b 573e e28d 663e 0328 5e3a ff63 353d
000001b0: 54b9 283e 238e d83b aa76 233c 13b4 413e
000001c0: 08ff c13d 8bee 333e 688d 5d3d 772e 4d3e
000001d0: 888c ea3d bf07 8c3e 87f2 64bc 458f 9d3d
000001e0: b7db 203d 263e 5abd 60b1 743d 6a1a 153c
000001f0: c853 1c3e 5089 da3d 5e03 013e c83e 063e
0.0808254 -0.043099906 0.05083344 0.04775966 0.046918705 0.09334372 0.0757455 0.18474218
0.1378217 0.013739174 0.26261884 0.037323754 0.007402972 0.023748975 0.056594137 0.1250122
0.15575707 0.02067968 0.10077942 0.12006307 0.06588058 0.12385075 -0.0043532006 0.121534966
0.11602305 0.04333733 0.05109502 0.014337285 0.08099813 0.12929773 0.041893125 0.021258423
0.016743885 0.21042073 0.049996503 -0.018540716 0.11459033 0.04359859 0.17688438 -0.0054531833
0.19277717 0.0478416 0.06790408 0.12148546 0.06606327 0.10982862 0.08639246 0.05540368
0.08336049 -0.0046126363 0.02639396 0.09818283 0.10460229 0.1287081 0.09539614 0.02664101
0.08469035 0.13640782 0.08883086 0.18775697 0.10257401 0.05186087 0.22919993 0.1356088
0.061140954 -0.0026758953 -0.0033578086 0.064402014 0.04454611 0.053144272 0.11838964 0.13030301
0.04222527 0.119083315 0.12663841 0.21156839 -0.041740246 0.21594931 0.076806135 0.1254207
0.019304875 0.08362522 0.09169778 0.0576919 0.047474742 0.008504987 -0.01828084 0.15703343
0.045995034 0.20843951 0.03548577 0.04685823 0.20174278 0.060549445 0.022637695 0.16138116
0.13428198 0.017090566 0.1314295 0.05208458 0.083632775 0.24496312 0.08330016 0.0767979
0.2100675 0.22515061 0.000847459 0.044284817 0.16476947 0.006608741 0.009977022 0.18916349
0.094724715 0.17571466 0.054089934 0.20037256 0.114525855 0.2734966 -0.013973839 0.07693342
0.039272036 -0.053281926 0.05973947 0.009100536 0.15266335 0.106707215 0.1259894 0.13109887

body.3.running_var f4 [128]
00000000: 7814 713d 9dfb 813c 6ba0 9a3c d0c9 dd3c
00000010: e24a 913c fae8 023d 41bc 323d 86e8 493d
00000020: bc74 293d 2356 e53c 2853 373e 8242 6e3d
00000030: 00a5 2c3d 6f82 fd3c 1f34 183d 7656 783d
00000040: 2295 be3c ef34 433d a8d8 003d 9bfa 7d3d
00000050: 7f0c 563c 72b1 553d 4d32 1d3d 4619 d73c
00000060: a436 e73c ea03 173d 0876 913c e66f fe3c
00000070: d9cb 943d 5760 113d a26b dd3c d543 a93c
00000080: f5f3 563d a361 c23d a238 e13c fc8f b33c
00000090: cc12 b83c a4a1 bc3c f34d 9d3d a09a cf3c
000000a0: 0a3a 613d d533 bc3c b8f3 433d e206 f13c
000000b0: 890f e03c 63ed 463d a1d5 d63d 4ef1 923c
000000c0: 136b 553d df27 313d 142b d83c ea4e 2f3d
000000d0: 69fd 203d be2f 983d 3d09 d83d 7a5e ab3c
000000e0: d8f9 a33c c2b1 093d cf81 463d 6b2a 903d
000000f0: afa3 203d cf95 ee3c e636 e93d f835 5a3d
00000100: 5fdc 213d 75d8 1d3d 37c2 943c ce03 393d
00000110: 9c60 ec3c 9590 1a3d 8af8 1a3d facb f23c
00000120: bbf0 fb3c 3433 a23d 88e2 183d 7757 c03d
00000130: c722 743c bb78 233d ba7b 033d 7694 e13c
00000140: d1de 183d 29c0 123d 7af4 413d 17b2 5f3c
00000150: 75f9 4c3d cc3b 883c 77f6 dc3c 3b7d 1c3d
00000160: cd16 353d 9739 323d 46b9 d33c 747d 9e3c
00000170: 295c 1b3d 9078 093d fbfc 073d 61bc a53d
00000180: a0bc 993d 5fb3 153d 932e 873d 3a74 f13c
00000190: d5e3 6e3d 4407 cf3d ae2e 533d 0aeb 063d
000001a0: 09d4 3b3d 859d b03d 1bcd 4d3c 4653 4b3d
000001b0: fc2e a63c 1229 cf3c ad42 f43c 0a3a b43d
000001c0: 8f46 753d 34a1 9e3d f60a 0f3d 7166 193e
000001d0: fc77 083d 379b b43d 6e2b 9a3c ddc1 383d
000001e0: d470 5c3d 3372 1e3c f24c 263d 2e11 693c
000001f0: cc20 8f3d 2819 b73d b98b ac3c 90e9 d93c
0.05885741 0.015867049 0.018875321 0.02707377 0.017735902 0.031960465 0.043636564 0.049294017
0.041371092 0.027995175 0.17902815 0.058168896 0.042149544 0.030945985 0.03715908 0.06062933
0.023264471 0.047657903 0.03145662 0.062006574 0.013064503 0.05217118 0.03837805 0.026257169
0.028224297 0.036868967 0.017756477 0.031059217 0.07265443 0.035492267 0.027028862 0.020662228
0.05247875 0.09491279 0.027492825 0.021919243 0.0224699 0.023026295 0.07680883 0.025342286
0.05498699 0.022973934 0.04783985 0.029422227 0.027351158 0.048566233 0.10489965 0.017937329
0.052104067 0.043250915 0.026387729 0.042799868 0.03930417 0.07430981 0.10548637 0.020919073
0.020016596 0.03361679 0.04846364 0.070393406 0.0392186 0.029124169 0.11387424 0.053274125
0.039516803 0.038536508 0.018159015 0.045169644 0.02885466 0.03773554 0.03783468 0.02963828
0.030754438 0.079199225 0.037325412 0.093916826 0.01490087 0.03991006 0.032100417 0.027536612
0.03732187 0.03582779 0.04735229 0.0136533 0.05004259 0.016630076 0.026972992 0.038205367
0.044211198 0.043511953 0.025845181 0.01934693 0.037929688 0.033562243 0.033200245 0.08092571
0.075066805 0.036548015 0.0660068 0.029474366 0.058322746 0.10108808 0.05155819 0.032938994
0.04585651 0.086237945 0.012561108 0.049639963 0.020286076 0.025288139 0.02981695 0.088001326
0.059881743 0.07745591 0.034922563 0.14980485 0.03331755 0.088186674 0.018819537 0.045106757
0.05381854 0.009670782 0.040600725 0.014225287 0.069886774 0.08940345 0.021062719 0.02660063

body.4.weight f4 [128, 1, 7]
00000000: 4b2e 923e f276 32bd bb7f 54be 1416 2abe
00000010: 1352 423d 992a 8c3e 8c8c 8e3e 3141 923e
00000020: 920e 94be a747 1a3c f24a a8be 5149 4d3e
00000030: fde2 8a3e 6671 87bd 3492 01be 2e70 15be
00000040: 8591 6e3e fe57 5bbe 59b0 80bd 0be5 be3d
00000050: 3123 0b3e 789c dc3d 015b 053e 153b b03e
00000060: 6abc a93e d9da 823d 3faa 613e ec60 e53d
00000070: 5058 72bd 9141 3abe 351b acbd a7e2 58bd
00000080: 6738 95bd 5f71 13be a726 493c 2f60 6cbe
00000090: b373 96bd 97ca 23bd 6247 48bd 09a0 bf3d
000000a0: bc05 0cbe d2a8 bf3c 517e 9f3e 0326 763e
000000b0: c8f0 8fbe 47cf 33be cd21 603e 1916 403d
000000c0: f564 49bd cfdd 41be ca8e 933e 4b67 03be
000000d0: 6fc5 2bbe 1889 c03c e73b 873e 038d f5bd
000000e0: 91e4 c53d 0b11 b23c 9374 87be df56 2abe
000000f0: 069d 1b3e ed47 4dbe cdf9 ad3e 778d aa3e
00000100: 0b56 b1be 127c 313c e2ed a7be a0c8 613e
00000110: 15be 553e dbfa adbc ce41 f6bd 46eb 0f3e
00000120: 308c f13c e6f4 bebe 8c5c 783d a751 a53e
00000130: e09c 11be f27e 2dbd 8e40 92bd edca 8b3e
00000140: 958b 443e 7356 f1bd 981a bf3e 8b7d c2be
00000150: fde9 4f3e e2dd b93d 2522 183e 6749 72bc
00000160: 94cb 9d3d df58 b13e 04ef 56be daae afbe
00000170: b4f4 a8be fca4 753e f235 a7bc 932e b03e
00000180: b4ab 863d db0c 69bc 6974 e0bd 6289 463e
00000190: 1e10 cd3d 9934 dd3c ae92 7f3e f240 bc3e
000001a0: 8721 ba3e 3281 a8be e8ec 3d3e 5c94 32be
000001b0: b959 bfbe 3fed 20bd b488 f63d 5686 89be
000001c0: 2581 b33d 604b b3bd e9ec 5dbe 195e 4abe
000001d0: 80f6 babe 9970 8b3e ba31 a63d d233 80be
000001e0: feee 48be 52c2 3dbe f3c7 a83e bfee 0c3e
000001f0: b0ae 703e 6a26 d6bd 6379 383e 2245 773e
00000200: ad68 763c 087e a03e d277 e33b 9bf0 48bc
00000210: d9e0 f2bd d198 8abe 2ba0 9e3d 7804 b8be
00000220: 8c63 04bd 71fc 153e 17a1 77bd ba8b 093e
00000230: 9917 a93d 4def 18be d0a0 d4bd d497 0ebe
00000240: e80b 88be e7f4 c9bb 0999 9cbe f2a1 a2be
00000250: d151 153d 269f 88be 3e77 96bd 495a 55bd
00000260: 7623 babe 33e8 99be 4205 e73d 0484 233e
00000270: 5714 55be 82bf 773e 315f d33d 73ca 123d
00000280: 2298 58be 103b 3f3e e9f7 403e 217a 9abe
00000290: 2506 55be 59d9 e0bd 90f2 13bd b0a7 6b3d
000002a0: e98a a73e 9c9c b53e cd0f 1e3e 57a7 a1be
000002b0: ee5b 513e dd1b 85be b0d6 aa3e 04f9 5ebe
000002c0: e4a6 343e 6979 943e 457d 10be ae3d b7be
000002d0: c2c2 79be 3e80 4c3d 3c8e 173e c6d4 3dbe
000002e0: 28c5 d2bd 4de7 bf3e d0d9 7f3d 1dc0 8fbe
000002f0: d058 f33d a755 bcbb 8f6d 52be ac7d 313e
00000300: d46c 463e 4786 afbe 1797 0b3e ad5d 27be
00000310: a97c 963e 994e 873c f12f 283e aacd 2c3e
00000320: d4d4 3fbd 442b ca3d 9abd 193e 4a43 5bbe
00000330: b7ae aabe 226e 763e 5cb2 cb3d 2f60 b1be
00000340: 4f84 733e fdf2 4bbe df66 42be 7532 2c3e
00000350: e6b7 833e ceaf b63d 35f5 8fbe 6d3f b73e
00000360: e76f b33e 3ed1 b03e e1d5 503e f2fb 57be
00000370: 1ec5 b33c a59c 4dbe 6080 8dbe f793 00be
00000380: 998d 9b3c b65f 46bd 45a6 d7bd 4141 8e3e
00000390: 30b1 b9bd a30c 0ebe 7740 723e fee2 85bd
000003a0: 7068 96be aa00 29be 7333 b93d a734 a73e
000003b0: 839c d7bd 8b4f ecbc 9ef5 55be 2b59 53bd
000003c0: de45 933e baed a93e 5fdd fbbd 8b7b e1bd
000003d0: 7ec4 8e3e 517e fabd a734 b1be 65df 50bd
000003e0: 16f1 933e c249 96be 7b1e 343e 6e3b 9d3d
000003f0: 7506 09bd 31ea 7ebe e58a c03e fb11 75be
0.28550944 -0.043570466 -0.2075185 -0.16609985 0.047441553 0.2737625 0.27841604 0.28565362
-0.28917366 0.009416497 -0.3286968 0.20047499 0.27126303 -0.06613426 -0.12653428 -0.14593574
0.23297699 -0.21420285 -0.06283636 0.0932103 0.13587643 0.107720315 0.13022996 0.34420076
0.3315156 0.06389398 0.220376 0.11200127 -0.059166253 -0.18189074 -0.08403627 -0.052950528
-0.072861485 -0.14398716 0.012277282 -0.23083566 -0.073462866 -0.039988127 -0.0488962 0.09356696
-0.13674062 0.02339593 0.3115106 0.24037938 -0.2811339 -0.17559539 0.21887894 0.046896074
-0.049168546 -0.1893227 0.28819877 -0.12832372 -0.16774534 0.023502871 0.2641289 -0.119897865
0.09662736 0.021736642 -0.26456127 -0.16634701 0.15196618 -0.20046969 0.33979645 0.33311054
-0.34635958 0.010832803 -0.32798678 0.22049189 0.20873292 -0.021237781 -0.1202427 0.14054593
0.029485792 -0.37296218 0.060635135 0.32288858 -0.1422 -0.042357393 -0.07141219 0.27303258
0.19193871 -0.11784067 0.37324977 -0.37986407 0.20304103 0.09075524 0.14856775 -0.014788008
0.07704845 0.34638116 -0.20989615 -0.3431309 -0.32999194 0.23988718 -0.020411465 0.34410533
0.065757185 -0.014224256 -0.109597035 0.19388345 0.1001284 0.02700262 0.24958298 0.367683
0.36353704 -0.32911068 0.18547404 -0.17439407 -0.3737314 -0.039288756 0.12037793 -0.26860303
0.08764867 -0.08754611 -0.21672405 -0.19762458 -0.3651619 0.27234343 0.08114953 -0.25039536
-0.19622418 -0.18531159 0.3296505 0.1376295 0.23504138 -0.10456546 0.18015055 0.24147466
0.015039605 0.31346154 0.006941774 -0.012264396 -0.118592925 -0.27069715 0.07745393 -0.3594091
-0.032321498 0.1464708 -0.06045636 0.13432208 0.08256454 -0.14935036 -0.10382235 -0.13925105
-0.26571584 -0.006163228 -0.30585507 -0.3176418 0.03645498 -0.2668392 -0.073469624 -0.052088056
-0.3635518 -0.30059966 0.112803 0.15968329 -0.2080854 0.24194148 0.10320891 0.035837602
-0.21151784 0.18674874 0.1884457 -0.30171302 -0.20803125 -0.10978956 -0.036119998 0.057532966
0.32723168 0.35471046 0.15435715 -0.31572983 0.20445225 -0.2599782 0.3336692 -0.2177468
0.17641789 0.2899888 -0.14110287 -0.35789245 -0.243907 0.04992699 0.14800352 -0.18538198
-0.10291511 0.37481156 0.06246358 -0.28076258 0.11882174 -0.0057475152 -0.20549606 0.17333096
0.19377452 -0.34282133 0.13631855 -0.16344328 0.29391983 0.01651697 0.16424538 0.1687533
-0.046833828 0.098715335 0.15013734 -0.21412387 -0.33336422 0.2406545 0.09946129 -0.34643695
0.2378094 -0.19916911 -0.18984555 0.16816123 0.2572624 0.08920251 -0.28116766 0.35790578
0.35046312 0.3453464 0.20394088 -0.21092203 0.021944579 -0.20079286 -0.27637005 -0.12556444
0.018988417 -0.04843112 -0.1052976 0.2778416 -0.09066999 -0.13872008 0.23657404 -0.06537436
-0.29376554 -0.1650416 0.09043016 0.32657358 -0.10527899 -0.028846523 -0.20894477 -0.05159871
0.28764242 0.33189183 -0.122980826 -0.11009892 0.27884287 -0.12231124 -0.34610483 -0.050994296
0.2889487 -0.29353148 0.17589752 0.07677351 -0.033453424 -0.24894024 0.37605968 -0.2393264
